data.pth (torch, 4991 bytes, 6 tensors)

l1.weight f4 [8, 54]
000000 37 bf 9d be 7b 90 d1 3e b9 f4 0a 3f 56 c6 f5 bd
       -0.30809948 0.40930542 0.5427967 -0.1200072
000010 eb 27 df 3d 92 8c 13 3f 09 2d c8 3e ad 26 fa 3e
       0.108962856 0.5763637 0.3909686 0.48857632
000020 eb 26 47 3f 75 a5 a4 3e ec d0 e1 bd d1 5e 84 be
       0.7779376 0.32157484 -0.11026177 -0.2585359
000030 e6 52 8c 3e 1f 25 73 bc 71 04 89 3e f9 8f 70 bd
       0.27406996 -0.014840393 0.267612 -0.058731053
000040 f1 e9 85 be fe 81 49 3f 07 00 a5 be 36 60 be be
       -0.26155046 0.7871398 -0.32226583 -0.37182778
000050 ef c4 10 bd 3c 48 be be 35 49 be be ce a0 26 bf
       -0.03534406 -0.37164485 -0.37165228 -0.6508912
000060 b9 a7 0d 3e df 9a 08 be a0 e4 72 be e7 15 06 3f
       0.13833512 -0.13340329 -0.23720026 0.5237717
000070 39 19 91 bd 0c d9 c8 3e f6 02 e4 3e 7d 9c 85 3d
       -0.07084889 0.39228094 0.4453351 0.065239884
000080 94 aa 1f bc 5e ce fa 3e 24 37 0f 3f f5 2b 64 be
       -0.009745259 0.4898557 0.5594351 -0.22282393
000090 94 b3 a3 3d f6 ee 0d 3f b9 aa b4 3e 1d ad 9c 3e
       0.07993236 0.5544275 0.352865 0.30600825
0000a0 ba 73 fd 3e 01 58 e6 be a5 57 b9 bd 04 9d ad 3e
       0.49502355 -0.44989017 -0.0904992 0.33908856
0000b0 af d0 95 3e 37 d0 0d 3f 15 98 f5 be 11 8f dd bc
       0.29260775 0.55395836 -0.47967592 -0.027045758
0000c0 c1 3f 1a be 1f 12 cd be bf fa 79 be 84 c9 94 be
       -0.15063383 -0.40052888 -0.24412058 -0.29059994
0000d0 c3 c4 6d 3e 3c 10 51 3e 52 8e 05 be 7e c0 b0 be
       0.2321959 0.20416349 -0.13042572 -0.3452186
0000e0 1e 0e 26 3e 2f 41 81 3e 02 9c 52 3e b5 12 10 bf
       0.16216323 0.25245044 0.20567325 -0.56278545
0000f0 de 19 fc 3d 6c ec 22 be fb 23 62 3e 55 73 9f bd
       0.12309621 -0.159105 0.22084038 -0.0778567
000100 a0 8d c3 3e 97 3b 1d 3f b7 bd 0b 3f 74 9a 39 3f
       0.3819399 0.6141905 0.54586357 0.725013
000110 dd c9 f7 bc 02 68 b4 3e e0 52 f3 3e c3 99 0a bf
       -0.030247623 0.35235602 0.47524166 -0.5414087
000120 89 4d bd 3e 5e 47 fb 3e 73 38 45 be 11 c5 f9 3e
       0.36973217 0.49077886 -0.19259815 0.48783162
000130 ed fd ed 3e 3a 15 f7 3e 18 74 04 3f 75 aa 96 3e
       0.46482792 0.48258382 0.51739645 0.29426923
000140 80 32 f8 3e 19 4d b4 be 85 f4 dd 3e e5 a6 7a be
       0.48476028 -0.3521507 0.43350616 -0.24477728
000150 b9 27 af be 1c 7b 21 3f 62 14 78 3d 73 48 3a 3d
       -0.34209993 0.63078475 0.060566314 0.04547925
000160 64 34 0a be 36 97 9e 3e 44 cc 7c 3e 43 7d a2 3e
       -0.13496548 0.3097474 0.24687296 0.31736192
000170 b9 a1 88 3d b9 70 71 3d 87 17 b4 be 3a aa 00 3f
       0.06671471 0.05894539 -0.351742 0.50259745
000180 56 c6 b0 3e f4 fa 7c bd 4b 53 36 3f 3a d0 0b be
       0.34526318 -0.061762765 0.71220845 -0.13653651
000190 14 62 fc be f6 92 d6 bd 8e a9 03 3f 06 33 0e 3f
       -0.49293578 -0.10477249 0.51430595 0.55546606
0001a0 82 83 e6 3e c4 8b f3 3e b4 0c fd 3c 52 56 d5 3d
       0.45022207 0.4756757 0.030889846 0.10416855
0001b0 d4 9c bf 3e 4e 0d ec bd 26 9b 9c 3e ae 0b 4c be
       0.37424338 -0.11525975 0.3058712 -0.1992633
0001c0 01 ba 13 3e 63 be a6 be e2 6a ff 3e 82 68 b1 3e
       0.14426424 -0.3256713 0.49886233 0.34650046
0001d0 ef 61 10 3f ad a0 62 3e 7f c2 1e be bb 5e 04 3f
       0.56399435 0.22131605 -0.15503882 0.5170705
0001e0 db 4a 80 3e 54 f8 10 3f e8 13 9e bd ec 7c 89 3e
       0.2505711 0.5662892 -0.077186406 0.2685312
0001f0 f3 2d f4 bd df ce a6 be 4f c8 a1 be 04 d6 7e bd
       -0.119228266 -0.32579705 -0.31598136 -0.06221582
000200 7c 57 f9 3e 7e 11 19 be 98 3f 9e bd b3 fd 03 be
       0.48699558 -0.14948079 -0.07726973 -0.12889747
000210 e7 05 17 3e 80 f3 25 be 9f 59 e8 bd 20 6e 83 be
       0.14748345 -0.16206169 -0.11345219 -0.25669956
000220 da 77 df 3b b3 70 d1 be 99 12 49 be 9f a0 eb 3e
       0.0068197073 -0.40906295 -0.19636 0.46020982
000230 95 63 86 3e e1 36 65 3e ff 77 c3 bc c7 5f 63 3e
       0.2624785 0.22384216 -0.02386093 0.22204505
000240 cb 8c 5a be ad 07 f6 3e d0 92 2a 3f e0 5a ff 3e
       -0.21342771 0.4805273 0.6663027 0.4987402
000250 d8 db a6 be 27 b6 bc be f7 93 06 3f de 5e a0 bd
       -0.32589602 -0.3685772 0.52569526 -0.078305945
000260 99 c8 fd 3e f3 fb dd bd 3d 52 2c 3f c1 1b 9f 3e
       0.49567106 -0.10839071 0.67312986 0.31075862
000270 64 82 0a 3d 02 43 91 be b8 e3 22 3e 08 bb 53 be
       0.033815756 -0.28371435 0.1590718 -0.20676816
000280 fd 86 10 3f 57 99 68 3e 7c ff 99 be e7 47 b5 3e
       0.56455976 0.22714745 -0.30077732 0.3540642
000290 5b 1a a0 be dd 2d db 3e 15 04 f2 3e 10 e9 4a bd
       -0.31270108 0.42808428 0.4726874 -0.049538672
0002a0 43 14 e8 3c a4 fb 57 be ec 3d fa be 22 ee 81 be
       0.028329974 -0.21092087 -0.48875368 -0.25376993
0002b0 77 3e 0d 3f 88 5f bb bd 07 a8 7c 3e 2c da 4f be
       0.5517344 -0.091490805 0.24673472 -0.2029807
0002c0 0c 46 8d 3e fe 70 ca 3b 9f 74 d1 3e 72 5d 0c be
       0.27592504 0.0061780205 0.40909287 -0.13707522
0002d0 ec bc b7 3e dd 03 4c 3f 80 d8 fb bd 03 0f 35 3f
       0.35886323 0.79693395 -0.122971535 0.7072603
0002e0 4f 2d 46 3f 44 1b 3e 3f d9 62 12 bc 58 5a e5 3e
       0.77412885 0.74260354 -0.0089347 0.4479549
0002f0 cb 0b 14 bd 5a ad 1d 3f ce 24 bc be 49 fd f9 3e
       -0.03614406 0.6159264 -0.3674683 0.48826054
000300 d8 20 5e 3d fd a8 3e 3d cc 2b 60 bd 8a 42 eb be
       0.05423054 0.04654788 -0.054729268 -0.45949203
000310 53 70 0e 3f 7e f0 9a bc 44 d8 d3 be 39 91 1a bf
       0.55640143 -0.018913504 -0.41375935 -0.6037784
000320 73 d5 d2 bc ac 5c d2 3d 79 31 dc ba 8f b2 e3 3e
       -0.025736546 0.10271582 -0.0016799412 0.44472167
000330 1b 09 40 be 89 57 84 3e 5a ff 95 be 6b 9c f8 3e
       -0.18753473 0.25848034 -0.2929638 0.48556837
000340 e8 91 35 bf f5 37 92 be 1c 43 47 3e 6a a9 4f 3d
       -0.7092576 -0.28558317 0.19459194 0.050698675
000350 40 d5 07 3e 40 c4 bc 3e a7 19 d9 bc ac 65 1a b8
       0.13264942 0.36868477 -0.02650149 -3.681115e-05
000360 8f 96 80 be 3e 24 29 3f 25 46 cd 3e ac d4 83 be
       -0.25114867 0.66070926 0.4009258 -0.25748193
000370 e9 6c e6 3d db 22 a5 be 7b 76 da 3e 42 3f fc 3e
       0.11251242 -0.32253155 0.42668518 0.49267012
000380 f7 60 4c 3f c8 2a a8 3e 28 9d a8 bd 72 f2 96 3a
       0.79835457 0.3284514 -0.082331 0.0011516346
000390 f5 42 50 3f 73 d9 47 3e 0c d1 17 3f 34 ba f4 bd
       0.8135217 0.19516544 0.59303355 -0.11949578
0003a0 4e 74 c2 3c 50 67 a5 be 20 5e a9 3e 72 4b cb bd
       0.023737099 -0.32305384 0.33079624 -0.099264994
0003b0 1c 9b 1a be 55 71 ed bd 93 d2 a3 bd c9 61 d0 be
       -0.15098232 -0.11593882 -0.07999148 -0.40699604
0003c0 a9 57 43 3d f5 d5 05 be 60 e6 fc 3e f2 7b 51 3f
       0.04769102 -0.130699 0.49394512 0.8182975
0003d0 77 e1 0a 3f be fe 27 3f 23 a5 6d be 36 ea 30 3e
       0.5425028 0.6562308 -0.23207526 0.17276844
0003e0 77 cc 82 be bb 67 f1 3e 27 cf 3c 3f ca b5 2c bd
       -0.2554662 0.47149453 0.7375359 -0.042165555
0003f0 e6 5b 07 3f 53 1f 33 3f 39 b0 0a 3f d5 d8 fe 3e
       0.528746 0.6996967 0.54175144 0.49774805

l1.bias f4 [8]
000000 fd 48 be 3e 76 04 25 3f 14 bc a6 3e 9a 8f 35 3f
       0.3716506 0.6445993 0.32565367 0.70922244
000010 a3 1d a5 3e 8f 40 2e 3f e7 f2 e0 3e eb 6f bc 3e
       0.32249174 0.6806726 0.4393532 0.36804137

l2.weight f4 [8, 8]
000000 27 4d 08 3f 41 a4 22 3f d4 e5 65 3f 98 4d 89 bf
       0.53242725 0.6353188 0.89803815 -1.0726805
000010 7b 05 3d be 40 c7 94 3f e6 37 87 3f 11 4c df be
       -0.18459122 1.1623306 1.0563934 -0.43612722
000020 cd a6 9a 3f a2 0f a7 3d 52 ec fe 3e ed f2 f6 3d
       1.2082154 0.081572786 0.49789673 0.12058053
000030 c0 71 4a 3f 0a 1d 15 bf a9 e3 14 3e 99 98 65 be
       0.7907982 -0.58247435 0.1453997 -0.22421493
000040 6c e2 aa 3f bb 8f b9 3d 77 d4 37 bf 86 44 57 3f
       1.3350348 0.090606175 -0.7180857 0.84088933
000050 e4 e1 3f 3f a1 e4 a4 3f b8 69 82 be 98 ab 88 3f
       0.74954057 1.2882272 -0.25471282 1.0677366
000060 cc d9 74 bf 10 f7 b1 3f 76 91 a3 bd 63 cc 77 3f
       -0.9564483 1.3903522 -0.07986729 0.96796244
000070 d2 bd 36 3e 2a 48 60 be 84 92 94 be 2a 9b 99 3e
       0.17845848 -0.21902528 -0.29018033 0.30001193
000080 b9 f5 f4 3d 21 82 9e 3f 9c a1 28 3e bf b6 e0 3e
       0.119609304 1.2383462 0.16467899 0.43889424
000090 27 38 9d 3f 76 8f 14 bd d1 e3 b1 3d ee c8 9e 3e
       1.2282761 -0.036269628 0.08686031 0.31012672
0000a0 d0 72 1e 3f 28 04 45 bf 1e c9 56 bf 79 4b a8 3e
       0.6189394 -0.76959467 -0.8390063 0.3287008
0000b0 b5 43 7f 3f 36 1e 85 3f 7e 98 43 be 7b 50 89 3f
       0.9971269 1.0399845 -0.1910114 1.0727686
0000c0 92 db ab be 8f 51 2e 3d f0 15 c7 3d 78 75 26 be
       -0.33565956 0.04255825 0.09720981 -0.16255748
0000d0 69 96 93 be 44 b8 9f be 03 1c 90 bd 76 e6 9b be
       -0.2882569 -0.3119527 -0.07036593 -0.30449265
0000e0 7a 9c 91 be ff a5 5d 3f d7 21 57 3f 8d 19 8d bf
       -0.28439695 0.86581415 0.8403601 -1.1023422
0000f0 89 27 60 3f dc 06 a5 3e 25 36 c1 3f 99 34 65 3e
       0.87560326 0.32231796 1.5094649 0.22383346

l2.bias f4 [8]
000000 ce 83 40 3f 34 2f e8 be 3f 71 8b 3e 4e 28 f0 3e
       0.7520112 -0.45348513 0.27234837 0.4690575
000010 43 d1 22 bf 37 61 13 be f8 49 42 be 0d 88 10 3e
       -0.6360056 -0.14392553 -0.1897353 0.14114399

l3.weight f4 [7, 8]
000000 2f 75 5c 3e d8 4c 12 3f 92 c5 97 bf 29 db bd 3e
       0.21529077 0.57148504 -1.1857169 0.37081268
000010 d2 fc 6c 3d 6a a6 87 bf 8a 55 63 be c8 f4 4b 3d
       0.057858296 -1.059766 -0.222006 0.04979399
000020 1c ef d6 bf 65 47 a6 3f ac 20 99 3e f0 ee 82 bf
       -1.679172 1.2990538 0.2990774 -1.0229168
000030 62 21 5c 3e 67 2f 00 3f 0e 6e ae bd df e2 46 bf
       0.2149711 0.5007233 -0.08517085 -0.7768993
000040 88 33 95 3e ad 4f 6b bf ac b7 36 3f 96 b5 5f bf
       0.29140878 -0.9191845 0.7137401 -0.87386453
000050 db b9 89 bf 57 1f a2 3e cc c1 0a be 16 a4 99 bf
       -1.0759844 0.31664535 -0.1355049 -1.20032
000060 66 d4 8a bf 2f 5b 7d bf 66 67 7c 3e e6 3d 9f 3f
       -1.0846069 -0.9896726 0.24648818 1.2440765
000070 d7 50 b0 3e e6 66 e8 bf 54 eb 74 3d 80 d1 90 bf
       0.34436676 -1.8156402 0.05979474 -1.1313934
000080 40 29 54 bf a4 64 7e bf 49 3f 99 3d 92 02 9c 3c
       -0.8287544 -0.99372315 0.07482774 0.019044194
000090 41 49 ba 3d d4 d5 0a 3d 75 7b 36 be d1 52 15 3e
       0.09096003 0.03389533 -0.17820533 0.14582373
0000a0 4a 38 53 3e df 13 4a 3f 0b a0 80 3d 39 53 9e bf
       0.20626941 0.7893657 0.06280526 -1.2369148
0000b0 51 32 e0 3d df 62 62 bf c2 4e 76 be a9 c6 86 3d
       0.10947097 -0.88432115 -0.24053481 0.0658086
0000c0 0f cd 6d 3f 4e c1 f0 bf 5e c7 63 bf bd 72 56 bf
       0.9289102 -1.8808992 -0.88976085 -0.83768827
0000d0 62 57 bf bf 47 58 79 bf 7c fc b5 be 17 8f 46 3f
       -1.4948542 -0.97400326 -0.35544193 0.7756209

l3.bias f4 [7]
000000 26 18 05 bf aa a2 2e bf 07 48 7d 3e cb 8a 67 3f
       -0.5198997 -0.68216956 0.24734508 0.90446156
000010 ce de ee be 33 53 14 bf 79 75 25 3f
       -0.4665436 -0.5793945 0.64632374
